model-pipeline/models/model.pt (torch_old, 716698 bytes, 36 tensors)

conv1.0.weight f4 [16, 20, 3, 3, 3]
0.014915895 0.03092884 -0.0153227225 0.021941992 -0.013460176 0.0022880952 -0.014551978 0.026475694
0.031559583 -0.043954752 0.03580883 0.008466346 0.021463875 0.0027948045 0.013942262 0.010568874
0.03419667 -0.0032614751 -0.030690271 0.011853699 -0.01459575 -0.004911938 -0.016074162 0.023299195
0.00010592549 -0.008649289 -0.020852873 -0.04104287 -0.010762419 -0.05140302 0.020675356 -0.043663066
0.030898396 -0.0010242345 -0.016082881 0.025248041 8.777275e-05 0.030666694 0.010308966 -0.023570059
0.008299192 -0.0049593374 0.018233923 0.03382556 0.020136198 -0.015126694 0.032445725 0.029059865
0.020940455 -0.024790172 -0.029279524 -0.0019511408 -0.02923518 0.030256977 -0.0019122259 0.0016760823
-0.00031105912 -0.0043730256 0.031202052 -0.017617231 -0.0053208526 -0.039206345 0.009967301 -0.011135521
0.015346513 -0.0012634031 0.039576117 -0.016585842 -0.0021224397 -0.024179684 0.023326315 0.011901524
0.058279328 -0.010777068 -0.011368737 -0.014166037 -0.011746421 0.044277422 0.029508589 0.026098222
-0.020575266 -0.033700023 0.015497728 -0.012361259 0.017069153 -0.018603785 0.024394501 -0.036809705
-0.019007731 0.008124693 0.010998674 -0.007903547 0.041257992 0.02812654 -0.029637745 -0.005075622
0.041817892 -0.0049442714 -0.011447807 -0.02455766 -0.0033833978 0.046146687 0.004259245 -0.01986293
0.02460034 -0.006822753 -0.015588137 -0.01223992 -0.04755427 -0.03390077 0.031919505 0.0042143203
0.018051438 -0.02699364 -0.024450827 -0.006406782 0.010576121 -0.042610463 -0.021245735 -0.022836462
0.0032801637 -0.013845305 0.008497813 -0.011857642 -0.0174935 -0.012136425 -0.013627914 -0.025981113
0.048334386 0.007367215 0.03867537 0.024507226 -0.0058459104 0.04222668 0.0022085372 -0.025739267
-0.03538464 -0.049358454 -0.0020097732 -0.014654664 0.004488618 -0.04608615 0.020154286 -0.044753354
-0.012562233 0.013468579 0.02245575 0.02711044 0.03302316 -0.036810644 0.011793959 -0.021281494
-0.01616605 -0.02535398 0.052346427 -0.009676281 0.028600447 0.020062696 0.010086585 -0.00857849
0.03700286 0.00088572846 -0.01315254 -0.059653245 0.0047546034 -0.021832285 -0.04105279 0.01153702
0.015621083 -0.022699533 -0.03230194 -0.0076475153 0.010898541 -0.0076327287 -0.020030191 -0.02804743
-0.04262385 0.039791804 0.034292758 -0.04365834 0.01821245 0.026055496 0.024623903 0.012836068
0.026573107 0.021043353 0.061238375 0.008883277 -0.007885003 0.001808382 -0.0115728155 -0.0135792345
0.015504179 0.019762138 -0.012216088 -0.007759667 -0.011614068 -0.015707886 0.012573216 0.012827021
-0.030385457 -0.013429643 0.030610347 0.01407359 0.018820874 -0.025115345 -0.031089418 -0.024923299
0.00036999272 0.032425065 0.04914694 0.033424485 -0.029548526 0.018258253 0.010078941 0.04127909
0.0066255066 -0.022715012 0.0013999619 -0.022241315 -0.039180905 0.0081031695 -0.026550036 -0.023218496
-0.06989437 0.03312376 0.030567117 0.01922767 -0.027624687 -0.042525567 -0.039301112 0.039663
0.012729477 0.010068009 0.03401665 0.026625039 0.0229012 -0.015649224 -0.023854392 -0.035671372
0.050027307 -0.010865522 -0.023381691 -0.028594729 -0.0018724382 -0.019362805 -0.04369964 -0.0054819817
-0.030207582 0.011709585 -0.032930054 -0.056514822 -0.00348892 -0.002276912 0.015104202 -0.04696797
00000000: cc61 743c 7b5e fd3c 280c 7bbc b1bf b33c
00000010: 1288 5cbc def3 153b 6b6b 6ebc 8ee3 d83c
00000020: 9f44 013d e609 34bd 48ac 123d 6eb6 0a3c
00000030: 02d5 af3c 0a29 373b 166e 643c 1229 2d3c
00000040: cf11 0c3d 79be 55bb 2a6a fbbc 0436 423c
00000050: 0323 6fbc 53f4 a0bb f6ad 83bc f4dd be3c
00000060: 5024 de38 bfb5 0dbc a5d3 aabc 921c 28bd
00000070: db54 30bc f98b 52bd 5d5f a93c 0bd8 32bd
00000080: a21e fd3c 9b3f 86ba 3fc0 83bc fbd4 ce3c
00000090: a312 b838 b838 fb3c f0e6 283c ff15 c1bc
000000a0: 56f9 073c f081 a2bb 4f5f 953c ac8c 0a3d
000000b0: abf4 a43c f4d5 77bc cfe5 043d f40e ee3c
000000c0: 518b ab3c c214 cbbc 9ddb efbc 6cbd ffba
000000d0: 9e7e efbc 7bdd f73c a7a3 faba fdaf db3a
000000e0: a615 a3b9 994b 8fbb 729b ff3c 0352 90bc
000000f0: 8c5a aebb d596 20bd e44d 233c c371 36bc
00000100: f16f 7b3c c698 a5ba 911a 223d 08df 87bc
00000110: a118 0bbb 7914 c6bc d416 bf3c 9cfe 423c
00000120: 4eb6 6e3d 4d92 30bc f043 3abc aa18 68bc
00000130: 1074 40bc 3e5c 353d ffbb f13c f0cb d53c
00000140: 768d a8bc 0909 0abd 2fea 7d3c e186 4abc
00000150: 9cd4 8b3c f766 98bc fad6 c73c c6c5 16bd
00000160: 1ab6 9bbc 6f1d 053c c833 343c e17d 01bc
00000170: 24fe 283d a169 e63c dbca f2bc 6751 a6bb
00000180: 3d49 2b3d 8e03 a2bb 958f 3bbc 252d c9bc
00000190: ffbb 5dbb 4f04 3d3d 2391 8b3b 95b7 a2bc
000001a0: a786 c93c 6791 dfbb 6365 7fbc f289 48bc
000001b0: 44c8 42bd 89db 0abd 07be 023d 4818 8a3b
000001c0: 9ce0 933c c421 ddbc 1a4d c8bc fcef d1bb
000001d0: 7747 2d3c 4f88 2ebd 890b aebc 8813 bbbc
000001e0: 04f8 563b 6bd7 62bc 693a 0b3c 8e46 42bc
000001f0: 874e 8fbc dbd7 46bc 9d47 5fbc 58d6 d4bc
00000200: 47fa 453d ae68 f13b 116a 1e3d 61c3 c83c
00000210: 0d8f bfbb e2f5 2c3d 1bbd 103b 28db d2bc
00000220: 7cef 10bd 172c 4abd 66b6 03bb 1e1a 70bc
00000230: 4215 933b d5c4 3cbd 9a1a a53c 4b4f 37bd
00000240: d3d1 4dbc 51ab 5c3c 1ff5 b73c b716 de3c
00000250: 4b43 073d c2c6 16bd 733b 413c 8756 aebc
00000260: aa6e 84bc 26b3 cfbc 3569 563d 4489 1ebc
00000270: 7c4b ea3c 865a a43c 3442 253c cb8c 0cbc
00000280: 5090 173d 3b30 683a c07d 57bc f656 74bd
00000290: 81cc 9b3b 9fd9 b2bc f826 28bd c505 3d3c
000002a0: 92ef 7f3c 5ff4 b9bc 0a4f 04bd 0298 fabb
000002b0: cb8f 323c f81b fabb 5b16 a4bc b9c3 e5bc
000002c0: 5996 2ebd bbfc 223d 9076 0c3d 16d3 32bd
000002d0: 4732 953c 5672 d53c 11b8 c93c 5f4e 523c
000002e0: d8af d93c 1c63 ac3c 17d5 7a3d 2a8b 113c
000002f0: 1a30 01bc 3b07 ed3a e89b 3dbc 707b 5ebc
00000300: 3d05 7e3c 35e4 a13c fd25 48bc ce44 febb
00000310: ef48 3ebc d3ad 80bc e4ff 4d3c 6d28 523c
00000320: ecea f8bc 0108 5cbc 8dc2 fa3c ea94 663c
00000330: 3c2e 9a3c b2be cdbc 3caf febc f22b ccbc
00000340: 95fb c139 25d0 043d 4d4e 493d 1de8 083d
00000350: c00f f2bc 5592 953c 2422 253c 4314 293d
00000360: c71a d93b d514 babc ed7e b73a 6b33 b6bc
00000370: 287c 20bd 28c3 043c 767f d9bc b734 bebc
00000380: c824 8fbd c8ac 073d e467 fa3c 5983 9d3c
00000390: 2b4d e2bc 4a2f 2ebd 34fa 20bd ab75 223d
000003a0: 4c8f 503c 4af4 243c 0b55 0b3d c11c da3c
000003b0: 4c9b bb3c cd32 80bc 496a c3bc 251c 12bd
000003c0: 6fe9 4c3d 4d05 32bc f68a bfbc 7e3f eabc
000003d0: 9a6c f5ba bf9e 9ebc 65fe 32bd 32a2 b3bb
000003e0: e475 f7bc 8fd9 3f3c aae1 06bd 167c 67bd
000003f0: 5da6 64bb 3f38 15bb 9d77 773c 7c61 40bd

conv1.0.bias f4 [16]
2.3218943e-08 -3.1433466e-08 -1.8799499e-08 2.7946427e-07 9.75521e-08 -5.7535385e-09 -1.017333e-08 1.7382566e-08
-1.8013934e-07 -2.3095622e-06 -4.6233018e-07 1.2608214e-09 -1.8483365e-06 3.460521e-07 -3.359821e-09 -3.145512e-06
00000000: ff72 c732 7601 07b3 897c a1b2 4709 9634
00000010: d67d d133 a9b0 c5b1 c7c6 2eb2 ab50 9532
00000020: 536c 41b4 fafd 1ab6 2d36 f8b4 3649 ad30
00000030: 5c14 f8b5 0ac9 b934 99e2 66b1 7c17 53b6

conv1.1.weight f4 [16]
0.91256833 0.9581415 0.93000644 0.9498446 0.96296966 0.9398499 0.941051 0.9639266
0.97087705 0.98208207 0.94629383 0.94214445 0.9611581 0.92443556 0.9516405 0.98877066
00000000: 149e 693f c348 753f e714 6e3f 0429 733f
00000010: 2e85 763f 019a 703f b8e8 703f e5c3 763f
00000020: 668b 783f bb69 7b3f 5040 723f 6130 713f
00000030: 750e 763f cfa7 6c3f b69e 733f 1320 7d3f

conv1.1.bias f4 [16]
0.012180419 0.0010032768 -0.031560138 0.014714695 0.041611616 -0.015498788 0.0010561264 0.028698679
0.012626631 -0.017750796 -0.022020582 -0.0032540455 -0.00078145694 0.013272268 0.040325016 0.010678611
00000000: 6190 473c 6280 833a 3445 01bd e715 713c
00000010: f170 2a3d a1ee 7dbc b96d 8a3a 7e19 eb3c
00000020: eedf 4e3c 1e6a 91bc 8264 b4bc d341 55bb
00000030: b0da 4cba ed73 593c d82b 253d 57f5 2e3c

conv1.1.running_mean f4 [16]
-15.529994 -5.8104277 -16.42728 -8.460031 -12.542586 -13.477519 -12.383184 -19.215294
-4.2818274 14.742417 21.812613 -27.041403 3.6326694 -8.006323 -4.9299283 8.552047
00000000: db7a 78c1 06ef b9c0 126b 83c1 495c 07c1
00000010: 6fae 48c1 eba3 57c1 8621 46c1 ecb8 99c1
00000020: bb04 89c0 f1e0 6b41 3b80 ae41 cb54 d8c1
00000030: a87d 6840 e619 00c1 f9c1 9dc0 2fd5 0841

conv1.1.running_var f4 [16]
2226.5537 848.5385 2602.958 1566.654 1711.1718 1662.7454 1520.8041 3173.0198
1131.1361 2571.2188 3933.1223 5354.816 2072.9656 977.3793 1348.7377 996.2117
00000000: dc28 0b45 7722 5444 54af 2245 eed4 c344
00000010: 7fe5 d544 dad7 cf44 bb19 be44 5150 4645
00000020: 5b64 8d44 80b3 2045 f5d1 7545 8756 a745
00000030: 738f 0145 4658 7444 9b97 a844 8c0d 7944

conv1.3.weight f4 [16, 16, 3, 3, 3]
-0.045232292 -0.02008749 -0.007605778 -0.042629655 0.02312821 -0.04060832 0.025109064 0.037838936
-0.0021158636 -0.02080298 0.036613394 -0.031021183 0.0035421064 0.028284747 0.038232744 -0.004995488
-0.011632459 -0.015173199 -0.046379305 0.010292701 -0.040494446 0.0031098018 -0.014910785 0.019636612
-0.027280243 0.022364989 -0.025618555 -0.002966364 -0.02734182 0.07203746 0.011360545 -0.022520052
0.043391924 -0.0018323086 -0.01584067 0.044390086 0.021457406 0.0069732484 0.07522416 0.030389255
0.007467265 0.035923436 -0.0061874655 -0.023360658 0.034775987 -0.06730798 -0.027760781 0.031034678
-0.060072765 -0.019599076 -0.008636599 -0.0051922505 -0.020138193 -0.04180638 0.025982969 -0.038354035
-0.027766138 0.016455514 -0.032608412 -0.015105806 -0.018720893 -0.012609578 -0.018011298 0.025801338
-0.032804217 -0.044820562 0.02380724 0.016763203 -0.005916548 -0.0027132262 0.042264733 -0.015621294
-0.0412894 -0.050694257 0.0022365719 0.02945054 0.00960653 -0.038508724 -0.04226397 -0.031064665
0.029567253 0.02030605 -0.021529756 -0.022705693 0.017917402 -0.012279265 0.05328243 -0.07028745
-0.07348874 -0.023630576 0.034955204 0.02711321 0.06754568 0.013099304 -0.0017020059 -0.037117805
0.014065607 -0.05457617 -0.012040847 0.0060552415 -0.046206564 0.0045352597 -0.021011826 0.009021937
0.017202074 -0.022044761 -0.058894414 -0.028691227 0.039611567 -0.021916196 0.029972956 0.0036645196
0.0282143 0.02163611 0.017171094 -0.04215251 0.024973866 -0.03864041 0.0009578331 0.03024465
-0.049773052 -0.037093196 -0.014988105 -0.0047144466 -0.0060216445 -0.023431692 -0.0002473326 -0.0182088
-0.038016565 -0.025467101 0.0030005542 0.0018548946 -0.05083103 0.020372927 0.0074286303 -0.019736458
0.043565404 0.012249066 0.01701014 0.0374321 0.007816329 0.031638544 -0.0016203359 0.03878531
0.0076349922 0.023960978 0.027910009 -0.030961389 0.04203716 0.008707839 0.008275207 -0.03547505
-0.017232222 0.03220431 -0.029079182 0.0053265085 0.032486588 -0.042749297 0.0008225059 -0.0024639335
0.019212684 -0.028580025 -0.036106028 -0.011691714 0.039013196 -0.024354996 -0.029812234 0.023756465
0.015579722 -0.03371346 -0.022105116 0.03196138 -0.0066996343 0.0010127005 -0.008067098 0.04183119
0.006039356 -0.032774325 -0.04435439 -0.023900153 0.034487695 0.027001774 0.0127790375 -0.039564364
-0.030165024 0.019649422 0.034428626 0.007811831 -0.023374174 0.010320494 -0.00977524 0.002831201
0.020648273 -0.0077911434 0.024122208 0.008861182 0.023071202 -0.0008485922 0.022293638 -0.049231716
0.034742877 -0.034832507 -0.023640148 -0.014967696 0.0029647173 0.0057812855 -0.035326596 0.02090611
0.0066075525 0.049133334 -0.031905573 -0.030402934 0.020021476 0.039148435 0.03285855 0.021277495
0.022215618 0.03911534 -0.012456227 -0.04200066 -0.024984661 -0.033981938 -0.009061328 0.03102314
0.012292835 -0.018792022 0.02921808 0.050411273 0.0037456965 0.011678078 -0.023264684 -0.014997549
0.03858599 -0.020907 -0.019355802 0.01802561 -0.023976348 -0.017807746 0.022411004 0.03208682
0.015289654 0.019114627 -0.029244382 0.015217843 -0.009393063 -0.028580077 -0.0689354 -0.04251499
-0.0511928 0.009841492 0.028980253 -0.020464081 0.0035742696 -0.025043389 -0.03096053 -0.082795314
00000000: 7f45 39bd 858e a4bc e439 f9bb 6f9c 2ebd
00000010: 5f77 bd3c e954 26bd 86b1 cd3c 00fd 1a3d
00000020: 4daa 0abb 036b aabc edf7 153d 2320 febc
00000030: af22 683b 6ab5 e73c f099 1c3d 31b1 a3bb
00000040: 1296 3ebc 0299 78bc 3af8 3dbd b8a2 283c
00000050: 81dd 25bd d1cd 4b3b 5d4c 74bc f6dc a03c
00000060: d17a dfbc c836 b73c 01de d1bc 5467 42bb
00000070: f4fb dfbc 6088 933d 9421 3a3c f97b b8bc
00000080: bbbb 313d 132a f0ba 4bc4 81bc 61d2 353d
00000090: 71c7 af3c d97f e43b 200f 9a3d e3f2 f83c
000000a0: f5af f43b 7424 133d 39c0 cabb da5e bfbc
000000b0: 4471 0e3d c4d8 89bd 946a e3bc 703c fe3c
000000c0: dc0e 76bd 3e8e a0bc 8680 0dbc c123 aabb
000000d0: daf8 a4bc 2b3d 2bbd 3cda d43c 1f19 1dbd
000000e0: d075 e3bc b7cd 863c 6690 05bd 587e 77bc
000000f0: 8f5c 99bc 6798 4ebc 6e8c 93bc 545d d33c
00000100: b75d 06bd c495 37bd 6707 c33c fc52 893c
00000110: 9adf c1bb 62d0 31bb c91d 2d3d 75f0 7fbc
00000120: 131f 29bd c8a4 4fbd 7393 123b 4242 f13c
00000130: b564 1d3c 53bb 1dbd fc1c 2dbd 537b febc
00000140: 0637 f23c e058 a63c 2c5f b0bc 4a01 babc
00000150: 84c7 923c f82e 49bc ad3e 5a3d def2 8fbd
00000160: 4481 96bd e994 c1bc 302d 0f3d 861c de3c
00000170: 6455 8a3d 779e 563c d715 dfba d708 18bd
00000180: 6f73 663c 438b 5fbd f946 45bc 0c6b c63b
00000190: 1843 3dbd 849c 943b fe20 acbc bfd0 133c
000001a0: 5deb 8c3c 3797 b4bc 453b 71bd dd09 ebbc
000001b0: bd3f 223d 9889 b3bc d889 f53c 7028 703b
000001c0: ad21 e73c 363e b13c 65aa 8c3c 1ca8 2cbd
000001d0: fe95 cc3c 6845 1ebd 1717 7b3a a1c3 f73c
000001e0: d4de 4bbd 09ef 17bd ab90 75bc a57b 9abb
000001f0: 3751 c5bb d2f3 bfbc 6bac 81b9 9f2a 95bc
00000200: 42b7 1bbd 62a0 d0bc f2a4 443b ef1f f33a
00000210: 3334 50bd 20e5 a63c de6b f33b 5aae a1bc
00000220: a371 323d 4eb0 483c d958 8b3c 6752 193d
00000230: 0f10 003c 6b97 013d 7361 d4ba 58dd 1e3d
00000240: f52e fa3b d049 c43c 88a3 e43c bda2 fdbc
00000250: 282f 2c3d 53ab 0e3c bc94 073c 494e 11bd
00000260: 972a 8dbc abe8 033d 7737 eebc fe89 ae3b
00000270: a810 053d e319 2fbd 709d 573a f279 21bb
00000280: eb63 9d3c a820 eabc eae3 13bd 9a8e 3fbc
00000290: 4dcc 1f3d 2184 c7bc c938 f4bc eb9c c23c
000002a0: 1742 7f3c 2017 0abd ca15 b5bc f0e9 023d
000002b0: 9b88 dbbb 97bc 843a dd2b 04bc 2f57 2b3d
000002c0: cae5 c53b 5f3e 06bd f3ac 35bd 41ca c3bc
000002d0: f842 0d3d d332 dd3c 2b5f 513c 3e0e 22bd
000002e0: a41c f7bc d3f7 a03c 0805 0d3d 63fa ff3b
000002f0: 327b bfbc 4a17 293c 5428 20bc ac8b 393b
00000300: 9126 a93c d94c ffbb f09b c53c 7e2e 113c
00000310: d1ff bc3c 0f74 5eba 26a1 b63c 32a7 49bd
00000320: 8c4e 0e3d 88ac 0ebd fca8 c1bc 113b 75bc
00000330: b44b 423b f070 bd3b 9fb2 10bd 4a43 ab3c
00000340: 2b84 d83b 0940 493d 6baf 02bd 930f f9bc
00000350: 1404 a43c 1c5a 203d b096 063d 244e ae3c
00000360: 87fd b53c 6837 203d 3415 4cbc e208 2cbd
00000370: a2ac ccbc a530 0bbd f775 14bc 3d24 fe3c
00000380: e367 493c baf1 99bc c15a ef3c 0d7c 4e3d
00000390: 5c7a 753b 6955 3f3c 9495 bebc 48b8 75bc
000003a0: 580c 1e3d 2845 abbc 0f90 9ebc 72aa 933c
000003b0: 0c6a c4bc 8de1 91bc 4897 b73c 786d 033d
000003c0: 7581 7a3c 4796 9c3c ea91 efbc 4354 793c
000003d0: 5de5 19bc c420 eabc 012e 8dbd 3324 2ebd
000003e0: 8baf 51bd 363e 213c ff67 ed3c 4aa4 a7bc
000003f0: 4b3e 6a3b cb27 cdbc f0a0 fdbc 9790 a9bd

conv1.3.bias f4 [16]
-2.7639232e-06 -4.3712684e-05 -4.0669015e-06 2.8438143e-07 6.967217e-05 1.1493125e-05 3.785433e-05 -2.8316344e-05
6.4114893e-06 7.894191e-06 2.9230478e-07 -5.660592e-06 -4.7051053e-06 4.9475234e-06 2.4829487e-06 -5.0113304e-05
00000000: d77b 39b6 2358 37b8 6b76 88b6 16ad 9834
00000010: f61c 9238 99d2 4037 c7c5 1e38 e388 edb7
00000020: 4622 d736 4b71 0437 10ee 9c34 1df0 bdb6
00000030: 8ce0 9db6 e702 a636 bca0 2636 c030 52b8

conv1.4.weight f4 [16]
0.96748567 0.9541959 0.953702 0.9062586 0.9652674 0.9669906 0.98881155 0.9309046
0.9264237 0.95307034 0.9669709 0.96814334 0.9496063 0.93524235 0.9299838 0.94737566
00000000: 24ad 773f 2f46 743f d025 743f 9000 683f
00000010: c41b 773f b28c 773f c122 7d3f c44f 6e3f
00000020: 1b2a 6d3f 6bfc 733f 688b 773f 3ed8 773f
00000030: 6619 733f 0b6c 6f3f 6b13 6e3f 3687 723f

conv1.4.bias f4 [16]
-0.0012160247 0.023214739 0.0056050033 -0.02256241 -0.024072247 -0.018283414 -0.010643697 -0.00015443984
-0.020705191 0.008371108 0.0026682857 -0.018820856 -0.022035778 -0.012069184 -0.006176394 -0.027108684
00000000: 0563 9fba d62c be3c 2daa b73b ced4 b8bc
00000010: 2933 c5bc 19c7 95bc e762 2ebc 21f1 21b9
00000020: ef9d a9bc f926 093c 68de 2e3b 322e 9abc
00000030: 6084 b4bc d4bd 45bc 5963 cabb 0813 debc

conv1.4.running_mean f4 [16]
-0.21804048 0.020804597 -0.1625073 -0.027408103 -0.47238445 -0.3045503 0.17965719 -0.14473525
-0.37201393 -0.012449524 -0.23944625 -0.5076375 -0.29012692 -0.29147983 -0.52514243 -0.0023949146
00000000: 0146 5fbe 676e aa3c 5068 26be f586 e0bc
00000010: 60dc f1be 04ee 9bbe 0ef8 373e 7a35 14be
00000020: 9c78 bebe 17f9 4bbc 6631 75be 88f4 01bf
00000030: 848b 94be d83c 95be bc6f 06bf 00f4 1cbb

conv1.4.running_var f4 [16]
0.20804578 0.22286548 0.2634514 0.3614257 0.2526782 0.33750296 0.15147276 0.21409471
0.37528858 0.29106688 0.40160823 0.23411435 0.2589952 0.6645888 0.76607394 0.2562085
00000000: f409 553e d936 643e 1ae3 863e ca0c b93e
00000010: 095f 813e 30cd ac3e ad1b 1b3e a53b 5b3e
00000020: d325 c03e b806 953e 989f cd3e acbb 6f3e
00000030: 059b 843e 7e22 2a3f 6c1d 443f c32d 833e

conv2.0.weight f4 [32, 16, 3, 3, 3]
0.030876996 0.009716476 0.05117547 -0.046627413 -0.034071647 -0.031246055 -0.039258525 -0.0002155469
0.03367355 -0.034055535 -0.031753287 -0.021830697 0.017727885 0.020045679 -0.00014763248 0.037046477
0.014598394 0.050803825 -0.003498448 -0.028968126 -0.008902562 0.0009461621 0.0064792177 -0.0029879548
-0.0015137646 0.0064042406 -0.004378063 0.0060796216 -0.028209267 -0.005412225 0.028818468 0.00979123
0.02488267 -0.017229935 -0.010843071 -0.023546742 -0.03479991 -0.020200398 -0.0075367736 0.004209676
-0.0059302063 -0.031911507 0.012283598 0.018590914 0.036172926 0.027167326 -0.04397238 -0.040549617
0.04121223 0.025773186 0.018712996 -0.013358718 0.04259268 -0.04621825 -0.04467889 -0.004742041
0.012432849 -0.052263875 -0.0019897167 -0.008043207 -0.019591711 -0.044291906 -0.024158008 -0.0055254367
0.00477364 0.027459532 -0.02829935 0.03558133 0.019206818 -0.038407076 -0.046632838 0.042847276
-0.008192847 -0.018904164 -0.026200825 0.008205967 -0.027888214 -0.03801198 0.014262822 -0.029803867
0.02758952 -0.03785773 -0.008601532 -0.026624283 -0.007103165 -0.0031721196 0.022147465 -0.033583708
-0.024517938 0.059691664 -0.037052967 0.016827103 -0.040921796 -0.0014021989 -0.0035873742 -0.020599984
-0.0034918159 0.011831904 0.015137475 0.028519932 -0.024636684 0.020852147 0.028738521 -0.03473678
-0.036107887 0.00880342 -0.01133939 0.0069567957 -0.043993387 0.009254628 -0.037377026 0.037904203
-0.0012715093 0.019135494 0.0046175905 -0.025042893 0.0017656322 -0.0105068125 0.0052235588 -0.07642818
0.0157957 -0.010826125 0.02938877 -0.023159476 0.03589398 0.0114118215 0.031020863 -0.038165092
-0.061055753 0.017765956 -0.0088209575 -0.0067426395 0.042368498 0.026560452 -0.009870451 0.019459348
-0.0393504 -0.033509664 0.016796596 0.013285031 -0.015070872 -0.032191392 0.0026286934 0.04789572
0.042087734 0.030846534 -0.041587446 0.030929726 0.001088724 -0.043008853 0.0019352669 -0.05056779
0.008577703 -0.025510201 -0.032886684 -0.0042490326 0.031482466 0.016773133 -0.037137832 0.029491229
0.010643603 -0.03462162 -0.011228064 -0.009348943 -0.032073837 -0.050808843 -0.03243156 0.045881256
-0.030529737 -0.006730935 -0.044629592 -0.011342173 0.017131481 0.000923242 -0.014241899 -0.004954536
0.030911762 -0.0516143 -0.055751354 -0.05520548 0.011943131 -0.030879505 -0.021210983 -0.019070594
0.01901827 -0.0025939993 -0.008890868 -0.030334946 0.012156041 -0.040143263 0.018353026 0.016320242
-0.06157341 -0.037735745 -0.038663577 -0.053071976 -0.031148514 -0.056602716 0.023872476 -0.016779924
-0.04414895 -0.0399042 -0.059467897 -0.051142585 -0.009579633 -0.006650986 -0.04457548 0.0024940623
0.0196245 -0.0061230147 0.0019613833 -0.03587178 0.026151858 -0.021779926 -0.008886576 -0.023726474
0.017899673 -0.035558317 0.0113208 -0.016222399 0.05297324 -0.0040516052 0.02193228 0.015493842
-0.00841101 -0.016501414 0.028867083 -0.03576626 0.012807982 0.04815606 0.038856328 0.028296025
-0.03293747 -0.012691333 -0.056359876 -0.03771266 -0.020450886 0.008026345 0.04051369 0.015794015
0.02343033 0.015002549 0.0011816156 -0.041837752 0.013346803 0.044555794 0.0010115877 0.022139601
-0.01622984 -0.03549831 -0.06336606 -0.05498527 -0.03632848 0.02078558 -0.028190667 0.0029241643
00000000: c1f1 fc3c db31 1f3c 5f9d 513d 63fc 3ebd
00000010: b68e 0bbd baf7 ffbc 8ccd 20bd 6e04 62b9
00000020: 47ed 093d d17d 0bbd bc0f 02bd 4ad6 b2bc
00000030: 123a 913c d636 a43c cbcd 1ab9 0cbe 173d
00000040: 1a2e 6f3c ac17 503d 3846 65bb 904e edbc
00000050: 0ddc 11bc dd07 783a 9e4f d43b 90d1 43bb
00000060: 8369 c6ba aada d13b db75 8fbb 9037 c73b
00000070: 1f17 e7bc 0959 b1bb b514 ec3c 656b 203c
00000080: bed6 cb3c cb25 8dbc 23a7 31bc 19e5 c0bc
00000090: 5a8a 0ebd 4e7b a5bc 0af7 f6bb 52f1 893b
000000a0: 2d52 c2bb a4b5 02bd 2541 493c f94b 983c
000000b0: 102a 143d 038e de3c 621c 34bd 5b17 26bd
000000c0: 28ce 283d 4a22 d33c ff4b 993c 86de 5abc
000000d0: a975 2e3d 594f 3dbd 3601 37bd 2063 9bbb
000000e0: 26b3 4b3c a512 56bd e865 02bb a8c7 03bc
000000f0: cc7e a0bc 6e6b 35bd 04e7 c5bc b90e b5bb
00000100: 326c 9c3b d0f2 e03c 0ad4 e7bc bbbd 113d
00000110: 9e57 9d3c bd50 1dbd 1302 3fbd a080 2f3d
00000120: 4a3b 06bc e8dc 9abc 1da3 d6bc 5272 063c
00000130: d375 e4bc 73b2 1bbd 9dae 693c 3d27 f4bc
00000140: 6b03 e23c b510 1bbd 71ed 0cbc 2b1b dabc
00000150: abc1 e8bb 56e3 4fbb 9a6e b53c 128f 09bd
00000160: d8d9 c8bc 3f7f 743d dac4 17bd fed8 893c
00000170: 9d9d 27bd fdc9 b7ba 271a 6bbb 4cc1 a8bc
00000180: f3d6 64bb 9ada 413c 2c03 783c a2a2 e93c
00000190: dfd2 c9bc 1fd2 aa3c 0c6d eb3c 2748 0ebd
000001a0: dde5 13bd 383c 103c d9c8 39bc d5f5 e33b
000001b0: 6932 34bd b9a0 173c a718 19bd 7041 1b3d
000001c0: c6a8 a6ba 0ac2 9c3c 284f 973b c126 cdbc
000001d0: c96c e73a c424 2cbc 632a ab3b 6186 9cbd
000001e0: fc65 813c 0f60 31bc b8c0 f03c f1b8 bdbc
000001f0: 9105 133d a6f8 3a3c 771f fe3c 0053 1cbd
00000200: 9915 7abd e989 913c c785 10bc 5cf1 dcbb
00000210: 978a 2d3d 4e95 d93c acb7 21bc 3669 9f3c
00000220: e32d 21bd 6e41 09bd 0499 893c 75a9 593c
00000230: d2eb 76bc 1fdb 03bd 2846 2c3b 4d2e 443d
00000240: 3064 2c3d dfb1 fc3c 9957 2abd 5660 fd3c
00000250: 84b3 8e3a 0d2a 30bd c8a8 fd3a 2c20 4fbd
00000260: 7e89 0c3c c5fa d0bc 30b4 06bd 783b 8bbb
00000270: c2f3 003d cf67 893c d71d 18bd 9797 f13c
00000280: 8262 2e3c 66cf 0dbd eaf5 37bc 4f2c 19bc
00000290: db5f 03bd ef1c 50bd f5d6 04bd fced 3b3d
000002a0: 8019 fabc 2d8f dcbb 85cd 36bd 86d4 39bc
000002b0: 5257 8c3c b905 723a db56 69bc a959 a2bb
000002c0: aa3a fd3c 8469 53bd 885b 64bd 241f 62bd
000002d0: 1fad 433c 04f7 fcbc a8c2 adbc ef39 9cbc
000002e0: 34cc 9b3c 1600 2abb 01ab 11bc fe80 f8bc
000002f0: 222a 473c 436d 24bd 1659 963c 07b2 853c
00000300: 6634 7cbd cc90 1abd b35d 1ebd 0062 59bd
00000310: 2b2b ffbc 40d8 67bd 3690 c33c 0d76 89bc
00000320: 88d5 34bd 9672 23bd 9c94 73bd e37a 51bd
00000330: e5f3 1cbc 84f0 d9bb c794 36bd 6c73 233b
00000340: 8fc3 a03c 92a3 c8bb 8d8a 003b 4aee 12bd
00000350: 6c3c d63c d16b b2bc 0099 11bc 065e c2bc
00000360: 56a2 923c 99a5 11bd e07a 393c d6e4 84bc
00000370: 78fa 583d 54c3 84bb 53ab b33c e2d9 7d3c
00000380: 55ce 09bc f92d 87bc a97a ec3c a47f 12bd
00000390: 92d8 513c 4a3f 453d d027 1f3d 11cd e73c
000003a0: 71e9 06bd 4fef 4fbc 9dd9 66bd 9778 1abd
000003b0: 9e88 a7bc ee80 033c aff1 253d 7362 813c
000003c0: f7f0 bf3c 40cd 753c 71e0 9a3a 105e 2bbd
000003d0: 8dac 5a3c 2380 363d 4097 843a 1c5e b53c
000003e0: 71f4 84bc ad66 11bd 11c6 81bd 3c38 61bd
000003f0: 2ccd 14bd 8546 aa3c 1df0 e6bc 56a3 3f3b

conv2.0.bias f4 [32]
-1.8120779e-06 -2.2925576e-06 9.962495e-07 -9.319709e-07 -1.9568824e-05 -3.3732126e-06 5.259916e-07 -2.1569902e-07
6.233037e-07 3.982525e-07 -1.3816895e-06 8.0751647e-07 6.7709163e-07 -5.762639e-06 -1.5333218e-05 2.3570676e-05
5.3757512e-06 -1.244286e-06 1.9487054e-06 5.2755295e-06 -1.7059234e-06 4.3138874e-07 -2.7389396e-07 1.215548e-07
-1.0608028e-05 -3.407132e-06 6.7598753e-06 -2.1498583e-05 1.6627215e-06 -6.199473e-07 3.9978357e-07 -1.9807367e-06
00000000: 8636 f3b5 d7d9 19b6 dfb6 8535 8d2c 7ab5
00000010: bb27 a4b7 5a5f 62b6 de31 0d35 e59a 67b4
00000020: 1b51 2735 68cf d534 7d72 b9b5 1cc4 5835
00000030: 62c1 3535 b15c c1b6 d69f 80b7 a4b9 c537
00000040: 5a61 b436 5701 a7b5 81c6 0236 7404 b136
00000050: 15f7 e4b5 9e99 e734 b30b 93b4 bb84 0234
00000060: 22f9 31b7 15a6 64b6 e3d2 e236 db57 b4b7
00000070: ad2a df35 746a 26b5 d6a1 d634 ccec 04b6

conv2.1.weight f4 [32]
0.9109565 0.9620711 0.9123589 0.9245226 0.9645378 0.9008809 0.9001871 0.912762
0.9034267 0.9316348 0.92855006 0.93606395 0.90862125 0.9537151 0.968451 0.9440689
0.9179749 0.91604644 0.9189603 0.9150939 0.87979263 0.9368301 0.952082 0.89724874
0.9623938 0.95809007 0.9080215 0.91937447 0.9246497 0.96116483 0.89596313 0.862077
00000000: 7234 693f 4b4a 763f 5a90 693f 83ad 6c3f
00000010: f3eb 763f 21a0 663f a972 663f c5aa 693f
00000020: f946 673f 9e7f 6e3f 75b5 6d3f e3a1 6f3f
00000030: 679b 683f ac26 743f 68ec 773f 80ae 713f
00000040: 6700 6b3f 0582 6a3f fb40 6b3f 9843 6a3f
00000050: 173a 613f 19d4 6f3f a5bb 733f 18b2 653f
00000060: 715f 763f 6445 753f 1974 683f 205c 6b3f
00000070: d8b5 6c3f e60e 763f d75d 653f 14b1 5c3f

conv2.1.bias f4 [32]
0.008071999 0.0009332377 0.033321034 0.02691065 0.0072897775 -0.023197396 0.028765501 -0.009946315
0.018610565 -0.0071311495 0.040229645 0.002037887 0.015760379 0.009372212 0.014330911 -0.022504807
-0.008322239 -0.0032991518 0.021234456 -0.0074180826 -0.0051503293 0.001202693 0.0075124786 -0.003878502
-0.0028283878 0.039736994 0.018214904 -0.0017963448 0.015738409 0.007996884 0.044027455 0.008565651
00000000: 6b40 043c 86a4 743a a37b 083d b973 dc3c
00000010: 16df ee3b 7708 bebc a1a5 eb3c def5 22bc
00000020: 2f75 983c 6bac e9bb d7c7 243d 128e 053b
00000030: e91b 813c e88d 193c 33cc 6a3c 005c b8bc
00000040: 005a 08bc 9536 58bb e2f3 ad3c 6313 f3bb
00000050: 18c4 a8bb aea3 9d3a 3d2b f63b 772e 7ebb
00000060: 795c 39bb 42c3 223d 6c37 953c 5473 ebba
00000070: d6ed 803c 5d05 033c 2256 343d f256 0c3c

conv2.1.running_mean f4 [32]
-0.6060648 -0.38605678 -0.30279678 -0.44708237 -0.4450813 0.6681663 -0.7652181 -0.19038
-0.059611805 -0.3869376 -0.44084737 -0.7599218 -0.14281487 0.2193911 -0.05677848 -0.2393167
-0.049765423 -0.36470142 -0.19897018 -0.06809733 -0.5937636 -0.23476581 -0.22564812 -0.16059121
-0.1850862 0.05054361 -0.34144446 -0.014374196 -0.43371624 -0.47192857 -0.42770773 0.13325739
00000000: 1027 1bbf 3ca9 c5be 2e08 9bbe fbe7 e4be
00000010: b2e1 e3be f20c 2b3f 55e5 43bf faf2 42be
00000020: 822b 74bd af1c c6be bfb6 e1be 3c8a 42bf
00000030: 103e 12be 0fa8 603e 8d90 68bd 700f 75be
00000040: d4d6 4bbd 25ba babe d7be 4bbe 9d76 8bbd
00000050: e400 18bf 7366 70be 4d10 67be 0672 24be
00000060: 3d87 3dbe d106 4f3d cfd1 aebe bf81 6bbc
00000070: 0e10 debe 9fa0 f1be 82fc dabe a074 083e

conv2.1.running_var f4 [32]
0.18041363 0.1811739 0.19872579 0.2260738 0.11673197 0.20204243 0.1729118 0.3719987
0.29645255 0.45154652 0.19727741 0.77808505 0.32538074 0.25996095 0.22423528 0.13528612
0.10061419 0.22699368 0.1153563 0.11121589 0.4691893 0.18216403 0.301266 0.17082307
0.13804144 0.12767904 0.101687804 0.111193426 0.17921655 0.48196226 0.16778195 0.11780166
00000000: 5abe 383e a785 393e c67e 4b3e e47f 673e
00000010: 2c11 ef3d 36e4 4e3e ca0f 313e 9d76 be3e
00000020: a1c8 973e 1b31 e73e 1703 4a3e 9530 473f
00000030: 4e98 a63e 9a19 853e ef9d 653e 7288 0a3e
00000040: d00e ce3d 0871 683e ec3f ec3d 28c5 e33d
00000050: 9439 f03e 3589 3a3e 8a3f 9a3e 3eec 2e3e
00000060: bc5a 0d3e 4bbe 023e b241 d03d 61b9 e33d
00000070: 8b84 373e c2c3 f63e 08cf 2b3e ff41 f13d

conv2.3.weight f4 [32, 32, 3, 3, 3]
-0.046027854 -0.019221252 -0.017087854 0.0052392255 0.022572212 -0.017770799 0.0035465774 -0.004055152
0.0074385125 -0.039759044 -0.037561078 0.0020727513 -0.002134315 -0.023839979 -0.027972352 0.007483029
-0.012332809 0.0232086 -0.0060510035 -0.03251453 -0.033952832 -0.015191529 -0.03143261 0.0066727498
-0.024908427 0.011449066 -0.023782643 -0.013926737 -0.002059719 0.009877098 0.003917412 0.019299526
0.0068127946 0.03013794 -0.011615203 -0.04318535 -0.03238186 -0.020492973 -0.0056066737 -0.027997121
-0.023866313 -0.012933689 0.0297936 0.030865425 -0.025374893 -0.0031077599 -0.01204204 0.0055328533
-0.040886726 0.037233084 -0.009176377 0.010612777 -0.009783759 0.04322896 -0.067204855 -0.020549415
-0.057154566 0.0010461054 0.013020571 0.031745337 0.0034417755 0.028406776 0.03158351 -0.01762591
-0.018772718 -0.04594743 -0.011074549 -0.037481304 -0.005207456 -0.0060586715 -0.019633954 -0.046691876
-0.03616079 -0.0075615123 -0.046083916 -0.0004467294 -0.040294454 -0.032895334 -0.04598459 -0.048586406
-0.059745874 0.005504959 0.0010204791 0.040709924 0.005875889 0.01017105 0.0201126 0.032520574
-0.019357972 -0.021559848 0.0033752772 0.040589795 0.016461447 -0.0010935987 -0.0041794833 -0.0059026936
-0.03455976 -0.028576927 -0.0022170872 -0.009204411 -0.032730415 0.008576587 -0.0137747275 0.018346032
0.029189445 0.023005018 0.011286661 0.029260978 0.014394593 -0.0383195 -0.07325518 0.029645506
0.030242108 0.007057178 -0.0032607021 -0.006317052 0.017468417 0.01765775 0.006152207 -0.025726968
0.022970455 -0.016205696 0.019302338 -0.031178916 -0.035996966 -0.021289987 0.002254097 -0.021309111
-0.0049365563 0.024230544 -0.0019418389 -0.017913217 -0.03111168 -0.0071821925 -0.010687549 -0.012342193
-0.00022751349 0.0004238057 -0.018836996 -0.019943379 0.008432643 -0.011743846 -0.034200333 0.017006949
0.00027871772 -0.017575454 0.0077327597 -0.011540827 0.03607442 0.0007444193 -0.015096874 0.013319274
-0.016470524 0.02068305 0.03618716 0.039967556 -0.023224803 0.031432584 -0.020921288 0.01195134
-0.02161238 -0.004549309 -0.04494301 -0.0037572107 -0.013885761 -0.0069846776 0.019382788 -0.0335752
-0.03645391 0.0051689176 0.00719846 -0.004770756 -0.038202144 -0.040658854 0.027241461 -0.0046413364
-0.038948465 -0.0020718423 -0.019210164 -0.045874104 -0.024420863 -0.042085957 -0.03030408 0.015865335
-0.007024369 0.011927027 -0.021005237 0.027527388 -0.021447405 -0.05341524 -0.028000155 0.0027861958
0.018010244 0.004186512 0.052509602 0.024660485 -0.014474332 -0.030189035 -0.014413756 -0.022087017
-0.0008453815 0.0047238334 0.020084156 0.06915962 0.01467752 -0.02440903 -0.02084929 0.005044561
-0.0063253054 -0.04205794 0.02913238 0.01053565 0.04708388 -0.028766006 -0.024478253 0.02352327
-0.031082831 -0.050781876 -0.00013220625 -0.016463548 -0.00041111762 -0.0140895415 0.021892231 -0.007365263
-0.0012669674 -0.0015495722 -0.026854401 -0.054517742 -0.00797157 -0.002249577 -0.027442418 -0.022692673
0.016844245 -0.022553217 -0.0047619697 -0.0035560098 -0.00081184786 -0.01025271 0.00065075076 0.019940007
0.0062906314 0.00089217495 0.03532206 -0.010648016 0.010159822 -0.04406199 0.009861677 -0.0031505849
0.0155029595 0.0177237 -0.020399254 -0.02416776 -0.04667074 -0.0132232895 -0.048060037 0.0064634047
00000000: b487 3cbd e375 9dbc d4fb 8bbc cfad ab3b
00000010: 5ce9 b83c 1194 91bc b26d 683b 15e1 84bb
00000020: c4be f33b 61da 22bd a5d9 19bd ffd6 073b
00000030: dddf 0bbb 0f4c c3bc 4626 e5bc 3234 f53b
00000040: 8d0f 4abc f61f be3c 7f47 c6bb f52d 05bd
00000050: 2012 0bbd e4e5 78bc 7bbf 00bd 15a7 da3b
00000060: c20c ccbc dd94 3b3c d1d3 c2bc f82c 64bc
00000070: 5afc 06bb 8dd3 213c a25d 803b 0a1a 9e3c
00000080: dd3d df3b d7e3 f63c b14d 3ebc 1fe3 30bd
00000090: d7a2 04bd e1e0 a7bc 30b8 b7bb 385a e5bc
000000a0: 4983 c3bc d3e7 53bc b511 f43c 7dd9 fc3c
000000b0: 02df cfbc 8fab 4bbb fa4b 45bc f04c b53b
000000c0: d778 27bd b881 183d 8458 16bc 37e1 2d3c
000000d0: 0f4c 20bc da10 313d b3a2 89bd 3f57 a8bc
000000e0: e81a 6abd 791d 893a 3c54 553c 6607 023d
000000f0: 698f 613b 54b5 e83c b65d 013d 3664 90bc
00000100: 3ec9 99bc 5f33 3cbd 0672 35bc ff85 19bd
00000110: 4fa3 aabb d287 c6bb 63d7 a0bc fb3f 3fbd
00000120: 561d 14bd 90c6 f7bb 7dc2 3cbd 0137 eab9
00000130: cc0b 25bd 42bd 06bd 565a 3cbd 8a02 47bd
00000140: 17b8 74bd f162 b43b 99c1 853a 73bf 263d
00000150: 888a c03b 7aa4 263c 2ec3 a43c 4b34 053d
00000160: 9c94 9ebc 479e b0bc c133 5d3b 7c41 263d
00000170: 28da 863c 1557 8fba 0cf4 88bb 626b c1bb
00000180: 898e 0dbd 291a eabc 8d4c 11bb 19ce 16bc
00000190: 5410 06bd d084 0c3c 65af 61bc 6b4a 963c
000001a0: b41e ef3c 0575 bc3c b0eb 383c b8b4 ef3c
000001b0: 4dd7 6b3c e8f4 1cbd d006 96bd 22db f23c
000001c0: 4cbe f73c e63f e73b 81b1 55bb 46ff cebb
000001d0: ed19 8f3c fca6 903c 7498 c93b 5dc1 d2bc
000001e0: 892c bc3c cfc1 84bc f01f 9e3c ed6a ffbc
000001f0: 8e71 13bd 5768 aebc 79b9 133b 7290 aebc
00000200: d6c2 a1bb 227f c63c 4d85 feba bdbe 92bc
00000210: ecdd febc 9958 ebbb d41a 2fbc e936 4abc
00000220: b090 6eb9 3d32 de39 0b50 9abc 4c60 a3bc
00000230: 1129 0a3c 4369 40bc a615 0cbd 2852 8b3c
00000240: dc20 9239 66fa 8fbc 1763 fd3b bd15 3dbc
00000250: c5c2 133d 2225 433a e158 77bc 1639 5a3c
00000260: 31ed 86bc 806f a93c fd38 143d 05b5 233d
00000270: f141 bebc 74bf 003d 1f63 abbc 8ecf 433c
00000280: 720c b1bc 5f12 95bb 2916 38bd 893b 76bb
00000290: 1a81 63bc b9df e4bb a7c8 9e3c 2686 09bd
000002a0: b250 15bd 0660 a93b 0fe1 eb3b 0054 9cbb
000002b0: da79 1cbd e689 26bd 7c29 df3c 5a16 98bb
000002c0: 6d88 1fbd bfc7 07bb a25e 9dbc 7ce6 3bbd
000002d0: 430e c8bc 5362 2cbd 4340 f8bc 05f8 813c
000002e0: ae2c e6bb 9469 433c 2d13 acbc 1e81 e13c
000002f0: 78b2 afbc f0c9 5abd 9560 e5bc 9c98 363b
00000300: 388a 933c 022f 893b 4f14 573d c904 ca3c
00000310: c025 6dbc ff4e f7bc ad27 6cbc d5ef b4bc
00000320: 989c 5dba 63ca 9a3b 8787 a43c 8fa3 8d3d
00000330: fb79 703c 72f5 c7bc 21cc aabc d84c a53b
00000340: 8244 cfbb f244 2cbd 07a7 ee3c b89d 2c3c
00000350: 07db 403d b0a6 ebbc 9e86 c8bc dfb3 c03c
00000360: 6ca1 febc a800 50bd d8a0 0ab9 90de 86bc
00000370: 468b d7b9 d2d7 66bc 5657 b33c 4e58 f1bb
00000380: 5f10 a6ba 041b cbba c3fd dbbc ff4d 5fbd
00000390: 309b 02bc a46d 13bb ecce e0bc fce5 b9bc
000003a0: f1fc 893c 86c1 b8bc 4c0a 9cbb f20b 69bb
000003b0: 30d2 54ba fcfa 27bc 2597 2a3a 3a59 a33c
000003c0: a421 ce3b d9e0 693a ddad 103d 0475 2ebc
000003d0: 6275 263c 587a 34bd df92 213c 0b7a 4ebb
000003e0: 2000 7e3c 4b31 913c 561c a7bc 77fb c5bc
000003f0: d129 3fbd 7fa6 58bc 9ada 44bd f8ca d33b

conv2.3.bias f4 [32]
-4.660603e-06 -6.6274183e-06 1.265382e-06 -1.2790127e-06 5.5302385e-06 -4.512406e-06 -3.6579377e-06 2.3295652e-06
-6.2776344e-08 4.4904095e-06 2.866584e-07 1.0037596e-06 1.4929243e-06 1.4516748e-06 -7.751462e-07 -3.3609322e-06
-3.818924e-06 -7.5744566e-07 2.4638373e-07 6.720438e-07 -7.727145e-07 7.790359e-06 5.6683297e-07 -5.1165935e-06
-6.87902e-06 3.5978736e-08 -4.3339065e-07 -5.97148e-07 9.76277e-07 -1.8070306e-06 8.148947e-07 -1.719294e-07
00000000: 4662 9cb6 1761 deb6 32d6 a935 8baa abb5
00000010: 6390 b936 4669 97b6 e47a 75b6 a055 1c36
00000020: a9cf 86b3 53ac 9636 08e6 9934 ebb8 8635
00000030: 7d60 c835 2bd7 c235 a413 50b5 608c 61b6
00000040: 4f24 80b6 4553 4bb5 b946 8434 8066 3435
00000050: 896c 4fb5 56b3 0237 7728 1835 34af abb6
00000060: 55d2 e6b6 0a87 1a33 c2ac e8b4 b34b 20b5
00000070: 9f08 8335 1989 f2b5 23bf 5a35 989b 38b4

conv2.4.weight f4 [32]
0.99755174 0.9559075 0.8787223 0.9232442 0.90283966 0.95519924 0.9067858 0.9352407
0.91119474 0.918091 0.90623677 0.89561784 0.8960979 0.8996585 0.91111815 0.9208341
0.9489649 0.8892063 0.91915375 0.94031996 0.9190536 0.9528855 0.9319697 0.90073067
0.9478158 0.92150146 0.92707795 0.94368017 0.92482483 0.92027116 0.9185145 0.91299915
00000000: 8d5f 7f3f 5bb6 743f f2f3 603f bb59 6c3f
00000010: 8020 673f f087 743f 1d23 683f ef6b 6f3f
00000020: 0f44 693f 0308 6b3f 22ff 673f 3647 653f
00000030: ac66 653f 0550 663f 0a3f 693f c9bb 6b3f
00000040: 5def 723f 06a3 633f a94d 6b3f cfb8 703f
00000050: 1947 6b3f 4ef0 733f 9195 6e3f 4996 663f
00000060: 0ea4 723f 85e7 6b3f fb54 6d3f 0695 713f
00000070: 52c1 6c3f e496 6b3f c423 6b3f 50ba 693f

conv2.4.bias f4 [32]
0.018260239 -0.0040013255 -0.0051252637 0.006282985 0.0042692143 0.007726979 -0.031108245 0.0007813621
0.018590588 0.0014631905 -0.0045715543 -0.0011993296 -0.0005464709 0.005015671 -0.022026028 -0.013207908
-0.011251337 -0.00971912 -0.0018305035 -0.00022321413 -0.009003223 0.030534985 0.022300387 0.0033321113
0.028215125 -0.00794501 -0.0035325475 -0.008465556 -0.00906405 0.015459687 -0.008097628 -0.0058198543
00000000: 7f96 953c 8d1d 83bb d4f1 a7bb 80e1 cd3b
00000010: c4e4 8b3b 9932 fd3b b8d6 febc 53d4 4c3a
00000020: 4a4b 983c 87c8 bf3a facc 95bb d332 9dba
00000030: 0b41 0fba 7f5a a43b ee6f b4bc fb65 58bc
00000040: 8757 38bc f23c 1fbc 81ed efba 960e 6ab9
00000050: 4182 13bc 8124 fa3c 4daf b63c 8d5f 5a3b
00000060: 6823 e73c ca2b 02bc 5082 67bb 1eb3 0abc
00000070: 6281 14bc a14a 7d3c eaab 04bc 7ab4 bebb

conv2.4.running_mean f4 [32]
-1.0561193 -1.3347946 0.4614719 -0.15858267 -0.44923526 0.065350346 -0.5637321 -1.1413114
-0.1113194 -0.60763425 0.20498177 -1.0482852 -0.8308824 -0.1925943 -1.2137039 -0.54089516
-1.17657 -0.0739842 -1.4086595 -0.71882266 -1.1567531 -0.48303744 -1.0152177 -1.0724442
-0.2616479 -0.9698846 -0.18359 -0.77801615 -0.16498877 -1.0089936 -0.06319826 -0.39458656
00000000: eb2e 87bf 8dda aabf 0b46 ec3e 7f63 22be
00000010: 2a02 e6be 67d6 853d bf50 10bf 7e16 92bf
00000020: 6dfb e3bd eb8d 1bbf bee6 513e 362e 86bf
00000030: b5b4 54bf 7137 45be a65a 9bbf 1b78 0abf
00000040: d999 96bf 0785 97bd f44e b4bf c304 38bf
00000050: 7c10 94bf af50 f7be a7f2 81bf da45 89bf
00000060: b7f6 85be 5b4a 78bf 04ff 3bbe 112c 47bf
00000070: d1f2 28be b426 81bf 176e 81bd 4007 cabe

conv2.4.running_var f4 [32]
0.40535468 0.3370164 0.4871117 0.29186076 0.45098028 0.45612985 0.31841442 0.43733686
0.3176935 0.276682 0.9514063 0.33326137 0.38876134 1.0053746 0.5039381 0.25461075
0.27820972 0.4888676 0.65080845 0.49177048 0.2846327 0.19270025 0.50374514 0.19181938
0.2586489 0.31682 0.33107427 0.55085194 0.24950796 0.27947426 0.72346276 0.38203132
00000000: a68a cf3e 6a8d ac3e b466 f93e c66e 953e
00000010: e3e6 e63e da89 e93e 3707 a33e 9eea df3e
00000020: b9a8 a23e 43a9 8d3e 5d8f 733f 3ca1 aa3e
00000030: ba0b c73e 1db0 803f 1602 013f 575c 823e
00000040: 8171 8e3e db4c fa3e 629b 263f 57c9 fb3e
00000050: 61bb 913e 3753 453e 71f5 003f 4d6c 443e
00000060: a16d 843e 3b36 a23e 9182 a93e a204 0d3f
00000070: 047f 7f3e 4017 8f3e db34 393f 9c99 c33e

conv3.0.weight f4 [64, 32, 3, 3, 3]
-0.018307209 -0.027368193 -0.0047149775 0.0047781854 -0.036555775 -0.036355574 0.02098015 0.013958391
0.00762722 -0.029561333 -0.016061332 0.0036157907 -0.0059758294 -0.04382168 -0.02674741 -0.007423045
-0.016409572 -0.05729496 0.005642459 0.045105856 0.073808 0.015955674 0.0383974 0.02143767
0.012670886 0.02508306 -0.023487762 0.010565878 -0.0023039575 0.026842343 -0.01957784 -0.054509502
-0.008758297 -0.0052384883 -0.0417796 -0.03342941 0.033605926 0.0008743026 0.02506278 0.037317183
-0.0031341917 0.031084107 0.0049716854 -0.0059050773 -0.0026171128 0.025646763 0.022476645 0.06309722
-0.00889628 -0.00845672 0.0076809884 0.012732647 -0.0017188605 0.0062598414 -0.001485597 -0.0028829414
0.036653608 -0.0051551084 0.015970146 0.0057355603 0.017006574 0.0155440895 0.015256823 -0.0054102177
0.012210601 0.017141003 0.015944729 0.0056841485 0.02077111 0.02250068 0.017147925 -0.0073858164
0.021092251 -0.005115041 -0.025668658 0.00330623 -0.0021731057 -0.017368207 0.028933585 0.005995
0.030274928 -0.046133738 -0.03572967 -0.026604779 -0.04716372 -0.007389128 -0.029025463 0.015711026
0.016469536 -0.03132689 -0.036466293 0.002381649 0.010413978 -0.01155656 -0.057068124 -0.03794505
0.013158274 -0.024900628 -0.060744394 0.016671298 0.021488141 -0.0072196615 -0.043524705 -0.013320517
-0.027985131 -0.057614714 -0.023273021 -0.0656767 0.008585361 0.050644305 0.032397784 0.0010280454
0.028602002 -0.0103911515 -0.024554212 -0.0070206644 0.018873977 -0.010904156 -0.04272239 -0.005135571
-0.004253308 -0.04994405 -0.04498229 -0.030890279 -0.008214459 0.018218921 -0.008246232 -0.0007146373
-0.010798033 -0.02436301 0.014720852 0.011470996 0.013833988 0.0042896005 0.017563902 -0.0011337266
-0.043013893 -0.011496265 -0.015336868 0.0025058656 -0.0018284239 0.0116903465 0.024570368 0.012301415
0.032675408 -0.028682701 -0.02270167 0.014055049 0.00808602 0.018971607 -0.0046464256 0.008905372
0.0497607 -0.012284558 0.021856917 -0.02176635 0.0028406207 0.05504805 0.042928144 0.015782822
0.04609637 0.026400657 -0.016378328 0.014147455 0.020154888 0.002012689 -0.0020909447 0.015333293
0.034983076 -0.020535959 0.007858077 -0.0015411536 -0.037984412 -0.024072645 0.02319544 -0.028572502
0.014479603 -0.010079691 -0.014705248 0.020736525 -0.03346039 0.0139866555 0.010064595 0.022040756
-0.018446399 -0.011976595 -0.021743568 0.028778752 -0.026119854 0.038091414 0.00198342 0.021480117
-0.004549167 -0.0029204914 0.014253376 0.023434691 -0.023240896 0.023195473 0.02802239 0.04887313
0.07151112 0.03066444 0.031157272 -0.009424845 -0.0042674565 0.018665217 -0.0073590693 0.028291611
0.056491695 0.058468457 0.0038011407 0.008913636 0.04254202 0.045590494 0.036134254 0.023520248
0.011604573 0.026942458 -0.003940685 0.031838194 -0.00062432355 0.021611653 0.032043245 0.031072445
0.018456537 -0.022135912 -0.005029377 -0.02275056 -0.027643781 -0.014486571 -0.042263974 0.011012161
-0.027040282 -0.019051436 0.0071916813 0.013852093 0.023588687 -0.022824293 -0.023515122 -0.022861356
-0.0023606967 -0.012603502 -0.043835614 -0.043981574 -0.0074389684 -0.007388643 0.013065586 -0.028820144
-0.009748567 0.020814613 0.006204366 0.0070804795 0.0067215925 -0.011078112 -0.01071411 -0.015177567
00000000: 00f9 95bc 4333 e0bc 1980 9abb 5392 9c3b
00000010: 82bb 15bd 95e9 14bd 90de ab3c bcb1 643c
00000020: c2ed f93b 9c2a f2bc 0e93 83bc e7f6 6c3b
00000030: e4d0 c3bb 5d7e 33bd 621d dbbc 043d f3bb
00000040: 5e6d 86bc 1fae 6abd 60e4 b83b ebc0 383d
00000050: a628 973d 79b5 823c 9846 1d3d 0d9e af3c
00000060: 8c99 4f3c fd7a cd3c 6869 c0bc 811c 2d3c
00000070: fefd 16bb 79e4 db3c b561 a0bc 5b45 5fbd
00000080: f67e 0fbc a0a7 abbb 1621 2bbd 47ed 08bd
00000090: 5ea6 093d 7431 653a 7650 cd3c e7d9 183d
000000a0: 0367 4dbb 19a4 fe3c 85e9 a23b 617f c1bb
000000b0: de83 2bbb 2919 d23c f120 b83c 1e39 813d
000000c0: b4c1 11bc 0e8e 0abc cdb0 fb3b 989c 503c
000000d0: 634b e1ba 5b1f cd3b 5db8 c2ba bbef 3cbb
000000e0: 1822 163d 2fec a8bb d3d3 823c 5ef1 bb3b
000000f0: 5f51 8b3c a3ac 7e3c c1f7 793c 3248 b1bb
00000100: f90e 483c 4a6b 8c3c 859e 823c 1842 ba3b
00000110: 2d28 aa3c 5953 b83c ce79 8c3c b804 f2bb
00000120: a8c9 ac3c 139c a7bb 1447 d2bc 56ad 583b
00000130: aa6a 0ebb c547 8ebc 2006 ed3c b471 c43b
00000140: 2003 f83c bbf6 3cbd 4659 12bd 44f2 d9bc
00000150: bf2e 41bd 8020 f2bb cfc6 edbc 69b4 803c
00000160: 1feb 863c a050 00bd ae5d 15bd 7115 1c3b
00000170: 649f 2a3c ba57 3dbc 44c0 69bd 456c 1bbd
00000180: cd95 573c 67fc cbbc 1dcf 78bd 3f92 883c
00000190: e607 b03c e992 ecbb f646 32bd 4c3e 5abc
000001a0: 1341 e5bc 68fd 6bbd 10a7 bebc 8181 86bd
000001b0: 9da9 0c3c 6770 4f3d 8ab3 043d 7bbf 863a
000001c0: bf4e ea3c a63f 2abc ea25 c9bc 9a0d e6bb
000001d0: 999d 9a3c 58a7 32bc acfd 2ebd 4b48 a8bb
000001e0: 555f 8bbb 2292 4cbd 5a3f 38bd 9c0d fdbc
000001f0: f095 06bc d93f 953c 341b 07bc 7f56 3bba
00000200: 3cea 30bc ef94 c7bc ba2f 713c d8f0 3b3c
00000210: f4a7 623c c78f 8c3b 2ce2 8f3c 8d99 94ba
00000220: 562f 30bd d55a 3cbc 7d47 7bbc 7339 243b
00000230: baa7 efba de88 3f3c cc47 c93c e08b 493c
00000240: a6d6 053d fcf7 eabc daf8 b9bc 2647 663c
00000250: 3a7b 043c 586a 9b3c 0b41 98bb d6e7 113c
00000260: e0d1 4b3d 2c45 49bc 470d b33c 584f b2bc
00000270: b529 3a3b 107a 613d 6cd5 2f3d fa4a 813c
00000280: 8ccf 3c3d 3146 d83c d82b 86bc baca 673c
00000290: dd1b a53c 51e7 033b 3b08 09bb 7e38 7b3c
000002a0: 6a4a 0f3d 073b a8bc 2abf 003c 8900 caba
000002b0: 8b95 1bbd ff33 c5bc 5d04 be3c e110 eabc
000002c0: db3b 6d3c 4a25 25bc 48ee 70bc a5df a93c
000002d0: c30d 09bd 4928 653c f9e5 243c d18e b43c
000002e0: e71c 97bc 7b39 44bc 911f b2bc 6bc1 eb3c
000002f0: 4ef9 d5bc be05 1c3d 44fc 013b 12f7 af3c
00000300: 2e11 95bb b765 3fbb fe86 693c 1cfa bf3c
00000310: b163 bebc 6f04 be3c 368f e53c 312f 483d
00000320: 6c74 923d fe33 fb3c 893d ff3c aa6a 1abc
00000330: 05d6 8bbb cce7 983c 5924 f1bb cfc3 e73c
00000340: d663 673d 9f7c 6f3d 8f1c 793b 800a 123c
00000350: 8b40 2e3d 19bd 3a3d 8301 143d 89ad c03c
00000360: 1b21 3e3c 6eb6 dc3c dd20 81bb c468 023d
00000370: a5a9 23ba ec0a b13c c73f 033d a48b fe3c
00000380: 2a32 973c 5f56 b5bc 79cd a4bb 625f babc
00000390: 3675 e2bc 1559 6dbc fd1c 2dbd 5a6c 343c
000003a0: 9583 ddbc c211 9cbc 32a8 eb3b e4f3 623c
000003b0: 103d c13c 03fa babc c9a2 c0bc bd47 bbbc
000003c0: ebb5 1abb eb7e 4ebc f98c 33bd 0626 34bd
000003d0: 97c2 f3bb 6e1c f2bb 0a11 563c 3918 ecbc
000003e0: 74b8 1fbc 6883 aa3c ff4d cb3b 5e03 e83b
000003f0: ce40 dc3b f880 35bc 3c8a 2fbc 54ab 78bc

conv3.0.bias f4 [64]
-2.4361618e-06 3.1244548e-07 3.1545735e-08 1.0972905e-06 -2.29844e-07 3.9726572e-07 8.2198954e-07 8.862845e-07
8.135355e-07 1.0243576e-07 -9.524504e-08 1.4169333e-06 5.71546e-07 -1.0769387e-06 4.338918e-07 1.3877171e-07
-1.9546216e-07 2.5084682e-07 -4.2734203e-07 6.34678e-06 8.349883e-07 5.8157315e-07 -2.670019e-07 7.560628e-07
-2.0980568e-07 1.9635002e-07 7.804561e-08 -1.5067371e-07 -1.3059562e-06 -2.8069553e-07 -4.5583835e-07 -1.1837116e-06
5.8702593e-08 8.0092555e-08 3.150163e-08 3.4944586e-07 5.4430967e-07 1.4978223e-06 -5.497e-08 -3.2258452e-08
1.455835e-06 1.2958957e-07 1.4702259e-07 1.2178523e-06 5.2049927e-07 -1.6983718e-07 6.1596216e-07 5.869872e-07
1.0549455e-06 7.983258e-07 5.9751727e-07 -1.0846035e-05 8.625241e-07 -2.7316622e-07 -2.1290477e-07 -2.3848608e-07
6.313772e-07 4.4135375e-09 -2.7731198e-07 -4.7310115e-07 1.7990367e-07 -1.0452566e-06 -5.5823244e-09 2.6103266e-06
00000000: f17c 23b6 2ebe a734 e77c 0733 9d46 9335
00000010: 0acb 76b4 c947 d534 b1a6 5c35 02e9 6d35
00000020: bc61 5a35 a8fa db33 8489 ccb3 752d be35
00000030: 586c 1935 558b 90b5 a3f1 e834 4701 1534
00000040: 3be0 51b4 20ac 8634 716d e5b4 6df6 d436
00000050: f623 6035 671d 1c35 7658 8fb4 3df4 4a35
00000060: f246 61b4 48d4 5234 079a a733 e0c8 21b4
00000070: 5048 afb5 80b2 96b4 f2b9 f4b4 05e0 9eb5
00000080: 2f20 7c33 59ff ab33 694c 0733 799b bb34
00000090: ad1c 1235 c808 c935 2718 6cb3 8b8c 0ab3
000000a0: 1c66 c335 4f25 0b34 43dd 1d34 1675 a335
000000b0: 70b8 0b35 7d5c 36b4 9958 2535 7491 1d35
000000c0: a797 8d35 884c 5635 1365 2035 5ef7 35b7
000000d0: 3488 6735 aea7 92b4 d19a 64b4 4709 80b4
000000e0: e97b 2935 e3a5 9731 78e1 94b4 87fe fdb4
000000f0: 8b2b 4134 be4a 8cb5 a5ce bfb1 122d 2f36

conv3.1.weight f4 [64]
1.0528557 1.0028484 0.9895148 0.9924352 1.0027503 0.9997519 1.0008656 1.0041978
0.9862521 1.0002487 1.0125728 0.9979154 1.0074635 1.004634 0.96711063 1.0047852
0.99484354 0.9871007 1.0051641 1.0075538 1.0062339 0.9832551 0.9962555 1.0021578
0.98110694 1.0027609 1.0010465 0.99484783 0.98125225 0.9970185 0.9995856 1.0779217
1.0078888 1.0003382 0.99230117 1.0052732 1.001802 1.0334896 0.99788463 0.98473966
1.0072465 0.9997035 1.0087224 1.0061183 0.99949884 1.0027092 0.995736 0.9955281
1.0232235 1.0129664 1.0001792 1.0819731 0.99005693 1.006067 0.98666066 1.0044613
1.0009677 0.9897061 1.0085692 0.9986476 1.0031039 0.986054 0.97650427 1.0640341
00000000: fac3 863f 565d 803f d850 7d3f 3c10 7e3f
00000010: 1f5a 803f beef 7f3f 5d1c 803f 8e89 803f
00000020: 057b 7c3f 2608 803f fc9b 813f 6277 7f3f
00000030: 90f4 803f d997 803f 9094 773f cd9c 803f
00000040: 11ae 7e3f a2b2 7c3f 38a9 803f 86f7 803f
00000050: 46cc 803f 9bb6 7b3f 9a0a 7f3f b546 803f
00000060: d329 7b3f 785a 803f 4b22 803f 59ae 7e3f
00000070: 5933 7b3f 9b3c 7f3f d8e4 7f3f 57f9 893f
00000080: 8002 813f 150b 803f 7307 7e3f cbac 803f
00000090: 0c3b 803f 6349 843f 5e75 7f3f e617 7c3f
000000a0: 74ed 803f 92ec 7f3f d11d 813f 7cc8 803f
000000b0: 28df 7f3f c658 803f 8ee8 7e3f eeda 7e3f
000000c0: fdf8 823f e2a8 813f df05 803f 187e 8a3f
000000d0: 5f74 7d3f cec6 803f cb95 7c3f 3092 803f
000000e0: b61f 803f 615d 7d3f cc18 813f 5ea7 7f3f
000000f0: b565 803f 096e 7c3f 2ffc 793f 4532 883f

conv3.1.bias f4 [64]
0.06786457 0.029284067 0.022851445 0.021356191 0.02644019 0.01612838 0.021141555 0.02924355
0.030337423 0.028878132 0.032281745 0.023412384 0.016931638 0.030120175 0.009344418 0.023139043
0.013962982 0.021183925 0.015336342 0.021842854 0.03142018 0.00878898 0.02100046 0.0294229
0.017099801 0.033855133 0.022592725 0.022422478 0.010251994 0.02444416 0.023976667 0.09151163
0.021355301 0.024188144 0.017997023 0.020110061 0.019446481 0.048690725 0.01888781 0.015445913
0.039047394 0.013445347 0.029544106 0.036230434 0.018265203 0.014082515 0.03569413 0.021778421
0.051610652 0.022634061 0.024205737 0.069847286 0.017555555 0.032586277 0.01574457 0.027476387
0.018885545 0.024695864 0.018541686 0.016609857 0.029058684 0.010486735 0.011527778 0.06287134
00000000: 94fc 8a3d 24e5 ef3c f432 bb3c 2ef3 ae3c
00000010: 1999 d83c aa1f 843c 0e31 ad3c 2b90 ef3c
00000020: 3086 f83c d591 ec3c dd39 043d 54cb bf3c
00000030: 38b4 8a3c 96be f63c 5419 193c 178e bd3c
00000040: fec4 643c e989 ad3c 4845 7b3c c9ef b23c
00000050: 72b2 003d a7ff 0f3c 2809 ac3c 4b08 f13c
00000060: e214 8c3c aeab 0a3d 6114 b93c 58af b73c
00000070: fbf7 273c 1e3f c83c b76a c43c 736a bb3d
00000080: 50f1 ae3c 3726 c63c 7e6e 933c dbbd a43c
00000090: 3a4e 9f3c ed6f 473d 9cba 9a3c db10 7d3c
000000a0: 29f0 1f3d df49 5c3c 7b06 f23c 5d66 143d
000000b0: e8a0 953c 59ba 663c 0234 123d a968 b23c
000000c0: b165 533d 116b b93c 1c4b c63c 180c 8f3d
000000d0: abd0 8f3c 3079 053d c2fa 803c 2916 e13c
000000e0: dcb5 9a3c fb4e ca3c bce4 973c 6511 883c
000000f0: 7a0c ee3c 8ed0 2b3c 01df 3c3c b0c2 803d

conv3.1.running_mean f4 [64]
-0.37403077 0.18190679 -0.0017036406 -0.119452655 0.06296552 -0.1911578 -0.5810211 0.097446695
0.8139259 -0.18617262 -0.3244465 0.14357688 -0.27569336 0.05551072 -0.13043368 -0.72874665
0.118498325 -0.9616539 -0.45930272 -0.21319388 -0.11645984 0.2309891 -0.1718564 -0.31545195
-0.3806752 -0.9846551 0.071877286 -0.8279756 0.10036878 -0.41747165 0.19487515 -1.0103929
-0.34418055 -0.25970903 -0.47843927 -0.53158903 -0.3466967 -0.31353125 -0.35357517 -0.064862825
0.049378883 -0.75526637 -0.29946262 -0.17259595 -0.1469766 -0.57780993 -0.025535412 -0.36425155
-0.7172364 -0.23092295 -0.22761273 -0.3030749 0.17544432 0.07441396 0.83117306 -0.5447127
-0.049333643 -0.2787408 -0.06516736 -0.4031725 0.17333399 0.95646095 -0.13566767 0.38839
00000000: f680 bfbe c645 3a3e b14c dfba 98a3 f4bd
00000010: 11f4 803d dfbe 43be ccbd 14bf 2292 c73d
00000020: 735d 503f 09a4 3ebe da1d a6be d105 133e
00000030: ae27 8dbe 355f 633d 6890 05be 248f 3abf
00000040: 40af f23d f32e 76bf ba29 ebbe 7f4f 5abe
00000050: 7f82 eebd 6888 6c3e 20fb 2fbe eb82 a1be
00000060: dce7 c2be 5b12 7cbf 6634 933d 35f6 53bf
00000070: 268e cd3d d8be d5be 5a8d 473e 8e54 81bf
00000080: 6f38 b0be 95f8 84be fef5 f4be 3816 08bf
00000090: 3b82 b1be 2b87 a0be ce07 b5be cdd6 84bd
000000a0: 8341 4a3d 2359 41bf 2a53 99be febc 30be
000000b0: 0981 16be 5aeb 13bf a42f d1bc 2e7f babe
000000c0: ce9c 37bf 1177 6cbe 5013 69be a22c 9bbe
000000d0: ada7 333e 5966 983d c2c7 543f 4b72 0bbf
000000e0: 1312 4abd 1db7 8ebe 7776 85bd a06c cebe
000000f0: 777e 313e a0da 743f 77ec 0abe 0edb c63e
